{"format": "graph-model", "generatedBy": "2.4.1", "convertedBy": "TensorFlow.js Converter v3.1.0", "signature": {"outputs": {"inpaint_net/conv13_upsample/conv13_upsample_conv/kernel": {"name": "inpaint_net/conv13_upsample/conv13_upsample_conv/kernel"}, "inpaint_net/conv1/bias": {"name": "inpaint_net/conv1/bias"}, "inpaint_net/conv16/kernel": {"name": "inpaint_net/conv16/kernel"}, "inpaint_net/conv13_upsample/conv13_upsample_conv/bias": {"name": "inpaint_net/conv13_upsample/conv13_upsample_conv/bias"}, "inpaint_net/xconv7_atrous/kernel": {"name": "inpaint_net/xconv7_atrous/kernel"}, "inpaint_net/xconv4_downsample/kernel": {"name": "inpaint_net/xconv4_downsample/kernel"}, "inpaint_net/allconv16/bias": {"name": "inpaint_net/allconv16/bias"}, "inpaint_net/allconv15_upsample/allconv15_upsample_conv/bias": {"name": "inpaint_net/allconv15_upsample/allconv15_upsample_conv/bias"}, "inpaint_net/pmconv2_downsample/bias": {"name": "inpaint_net/pmconv2_downsample/bias"}, "inpaint_net/xconv10_atrous/kernel": {"name": "inpaint_net/xconv10_atrous/kernel"}, "inpaint_net/pmconv5/bias": {"name": "inpaint_net/pmconv5/bias"}, "inpaint_net/pmconv4_downsample/bias": {"name": "inpaint_net/pmconv4_downsample/bias"}, "inpaint_net/conv6/bias": {"name": "inpaint_net/conv6/bias"}, "inpaint_net/xconv5/bias": {"name": "inpaint_net/xconv5/bias"}, "inpaint_net/conv10_atrous/kernel": {"name": "inpaint_net/conv10_atrous/kernel"}, "inpaint_net/conv10_atrous/bias": {"name": "inpaint_net/conv10_atrous/bias"}, "inpaint_net/xconv5/kernel": {"name": "inpaint_net/xconv5/kernel"}, "inpaint_net/pmconv1/kernel": {"name": "inpaint_net/pmconv1/kernel"}, "inpaint_net/allconv16/kernel": {"name": "inpaint_net/allconv16/kernel"}, "inpaint_net/allconv15_upsample/allconv15_upsample_conv/kernel": {"name": "inpaint_net/allconv15_upsample/allconv15_upsample_conv/kernel"}, "inpaint_net/pmconv2_downsample/kernel": {"name": "inpaint_net/pmconv2_downsample/kernel"}, "inpaint_net/conv5/kernel": {"name": "inpaint_net/conv5/kernel"}, "inpaint_net/allconv14/bias": {"name": "inpaint_net/allconv14/bias"}, "inpaint_net/conv9_atrous/bias": {"name": "inpaint_net/conv9_atrous/bias"}, "inpaint_net/xconv2_downsample/bias": {"name": "inpaint_net/xconv2_downsample/bias"}, "inpaint_net/pmconv3/bias": {"name": "inpaint_net/pmconv3/bias"}, "inpaint_net/conv11/kernel": {"name": "inpaint_net/conv11/kernel"}, "inpaint_net/xconv4_downsample/bias": {"name": "inpaint_net/xconv4_downsample/bias"}, "inpaint_net/conv11/bias": {"name": "inpaint_net/conv11/bias"}, "inpaint_net/xconv3/bias": {"name": "inpaint_net/xconv3/bias"}, "inpaint_net/xconv8_atrous/bias": {"name": "inpaint_net/xconv8_atrous/bias"}, "inpaint_net/conv14/kernel": {"name": "inpaint_net/conv14/kernel"}, "inpaint_net/conv16/bias": {"name": "inpaint_net/conv16/bias"}, "inpaint_net/conv17/kernel": {"name": "inpaint_net/conv17/kernel"}, "inpaint_net/allconv12/bias": {"name": "inpaint_net/allconv12/bias"}, "inpaint_net/allconv11/kernel": {"name": "inpaint_net/allconv11/kernel"}, "inpaint_net/pmconv1/bias": {"name": "inpaint_net/pmconv1/bias"}, "inpaint_net/xconv1/bias": {"name": "inpaint_net/xconv1/bias"}, "inpaint_net/xconv3/kernel": {"name": "inpaint_net/xconv3/kernel"}, "inpaint_net/allconv14/kernel": {"name": "inpaint_net/allconv14/kernel"}, "inpaint_net/conv9_atrous/kernel": {"name": "inpaint_net/conv9_atrous/kernel"}, "inpaint_net/allconv17/bias": {"name": "inpaint_net/allconv17/bias"}, "inpaint_net/conv2_downsample/kernel": {"name": "inpaint_net/conv2_downsample/kernel"}, "inpaint_net/pmconv6/bias": {"name": "inpaint_net/pmconv6/bias"}, "inpaint_net/xconv6/kernel": {"name": "inpaint_net/xconv6/kernel"}, "inpaint_net/conv3/kernel": {"name": "inpaint_net/conv3/kernel"}, "inpaint_net/conv14/bias": {"name": "inpaint_net/conv14/bias"}, "inpaint_net/xconv6/bias": {"name": "inpaint_net/xconv6/bias"}, "inpaint_net/allconv17/kernel": {"name": "inpaint_net/allconv17/kernel"}, "inpaint_net/conv2_downsample/bias": {"name": "inpaint_net/conv2_downsample/bias"}, "inpaint_net/pmconv5/kernel": {"name": "inpaint_net/pmconv5/kernel"}, "inpaint_net/pmconv4_downsample/kernel": {"name": "inpaint_net/pmconv4_downsample/kernel"}, "inpaint_net/conv6/kernel": {"name": "inpaint_net/conv6/kernel"}, "inpaint_net/conv4_downsample/bias": {"name": "inpaint_net/conv4_downsample/bias"}, "inpaint_net/xconv10_atrous/bias": {"name": "inpaint_net/xconv10_atrous/bias"}, "inpaint_net/conv12/kernel": {"name": "inpaint_net/conv12/kernel"}, "inpaint_net/conv8_atrous/bias": {"name": "inpaint_net/conv8_atrous/bias"}, "inpaint_net/conv8_atrous/kernel": {"name": "inpaint_net/conv8_atrous/kernel"}, "inpaint_net/pmconv10/kernel": {"name": "inpaint_net/pmconv10/kernel"}, "inpaint_net/xconv9_atrous/kernel": {"name": "inpaint_net/xconv9_atrous/kernel"}, "inpaint_net/xconv7_atrous/bias": {"name": "inpaint_net/xconv7_atrous/bias"}, "inpaint_net/conv15_upsample/conv15_upsample_conv/kernel": {"name": "inpaint_net/conv15_upsample/conv15_upsample_conv/kernel"}, "inpaint_net/conv5/bias": {"name": "inpaint_net/conv5/bias"}, "inpaint_net/xconv2_downsample/kernel": {"name": "inpaint_net/xconv2_downsample/kernel"}, "inpaint_net/conv12/bias": {"name": "inpaint_net/conv12/bias"}, "inpaint_net/pmconv9/bias": {"name": "inpaint_net/pmconv9/bias"}, "inpaint_net/xconv1/kernel": {"name": "inpaint_net/xconv1/kernel"}, "inpaint_net/conv17/bias": {"name": "inpaint_net/conv17/bias"}, "inpaint_net/allconv12/kernel": {"name": "inpaint_net/allconv12/kernel"}, "inpaint_net/conv1/kernel": {"name": "inpaint_net/conv1/kernel"}, "inpaint_net/allconv13_upsample/allconv13_upsample_conv/kernel": {"name": "inpaint_net/allconv13_upsample/allconv13_upsample_conv/kernel"}, "inpaint_net/conv7_atrous/kernel": {"name": "inpaint_net/conv7_atrous/kernel"}, "inpaint_net/xconv8_atrous/kernel": {"name": "inpaint_net/xconv8_atrous/kernel"}, "inpaint_net/conv3/bias": {"name": "inpaint_net/conv3/bias"}, "inpaint_net/pmconv3/kernel": {"name": "inpaint_net/pmconv3/kernel"}, "inpaint_net/conv4_downsample/kernel": {"name": "inpaint_net/conv4_downsample/kernel"}, "inpaint_net/pmconv6/kernel": {"name": "inpaint_net/pmconv6/kernel"}, "inpaint_net/pmconv10/bias": {"name": "inpaint_net/pmconv10/bias"}, "inpaint_net/xconv9_atrous/bias": {"name": "inpaint_net/xconv9_atrous/bias"}, "inpaint_net/conv15_upsample/conv15_upsample_conv/bias": {"name": "inpaint_net/conv15_upsample/conv15_upsample_conv/bias"}, "inpaint_net/allconv13_upsample/allconv13_upsample_conv/bias": {"name": "inpaint_net/allconv13_upsample/allconv13_upsample_conv/bias"}, "inpaint_net/pmconv9/kernel": {"name": "inpaint_net/pmconv9/kernel"}, "inpaint_net/conv7_atrous/bias": {"name": "inpaint_net/conv7_atrous/bias"}, "inpaint_net/allconv11/bias": {"name": "inpaint_net/allconv11/bias"}}}, "modelTopology": {"node": [{"name": "inpaint_net/allconv11/bias", "op": "Const", "attr": {"value": {"tensor": {"dtype": "DT_FLOAT", "tensorShape": {"dim": [{"size": "192"}]}}}, "dtype": {"type": "DT_FLOAT"}}}, {"name": "inpaint_net/allconv11/kernel", "op": "Const", "attr": {"value": {"tensor": {"dtype": "DT_FLOAT", "tensorShape": {"dim": [{"size": "3"}, {"size": "3"}, {"size": "192"}, {"size": "192"}]}}}, "dtype": {"type": "DT_FLOAT"}}}, {"name": "inpaint_net/allconv12/bias", "op": "Const", "attr": {"value": {"tensor": {"dtype": "DT_FLOAT", "tensorShape": {"dim": [{"size": "192"}]}}}, "dtype": {"type": "DT_FLOAT"}}}, {"name": "inpaint_net/allconv12/kernel", "op": "Const", "attr": {"value": {"tensor": {"dtype": "DT_FLOAT", "tensorShape": {"dim": [{"size": "3"}, {"size": "3"}, {"size": "96"}, {"size": "192"}]}}}, "dtype": {"type": "DT_FLOAT"}}}, {"name": "inpaint_net/allconv13_upsample/allconv13_upsample_conv/bias", "op": "Const", "attr": {"value": {"tensor": {"dtype": "DT_FLOAT", "tensorShape": {"dim": [{"size": "96"}]}}}, "dtype": {"type": "DT_FLOAT"}}}, {"name": "inpaint_net/allconv13_upsample/allconv13_upsample_conv/kernel", "op": "Const", "attr": {"value": {"tensor": {"dtype": "DT_FLOAT", "tensorShape": {"dim": [{"size": "3"}, {"size": "3"}, {"size": "96"}, {"size": "96"}]}}}, "dtype": {"type": "DT_FLOAT"}}}, {"name": "inpaint_net/allconv14/bias", "op": "Const", "attr": {"value": {"tensor": {"dtype": "DT_FLOAT", "tensorShape": {"dim": [{"size": "96"}]}}}, "dtype": {"type": "DT_FLOAT"}}}, {"name": "inpaint_net/allconv14/kernel", "op": "Const", "attr": {"value": {"tensor": {"dtype": "DT_FLOAT", "tensorShape": {"dim": [{"size": "3"}, {"size": "3"}, {"size": "48"}, {"size": "96"}]}}}, "dtype": {"type": "DT_FLOAT"}}}, {"name": "inpaint_net/allconv15_upsample/allconv15_upsample_conv/bias", "op": "Const", "attr": {"value": {"tensor": {"dtype": "DT_FLOAT", "tensorShape": {"dim": [{"size": "48"}]}}}, "dtype": {"type": "DT_FLOAT"}}}, {"name": "inpaint_net/allconv15_upsample/allconv15_upsample_conv/kernel", "op": "Const", "attr": {"value": {"tensor": {"dtype": "DT_FLOAT", "tensorShape": {"dim": [{"size": "3"}, {"size": "3"}, {"size": "48"}, {"size": "48"}]}}}, "dtype": {"type": "DT_FLOAT"}}}, {"name": "inpaint_net/allconv16/bias", "op": "Const", "attr": {"value": {"tensor": {"dtype": "DT_FLOAT", "tensorShape": {"dim": [{"size": "24"}]}}}, "dtype": {"type": "DT_FLOAT"}}}, {"name": "inpaint_net/allconv16/kernel", "op": "Const", "attr": {"value": {"tensor": {"dtype": "DT_FLOAT", "tensorShape": {"dim": [{"size": "3"}, {"size": "3"}, {"size": "24"}, {"size": "24"}]}}}, "dtype": {"type": "DT_FLOAT"}}}, {"name": "inpaint_net/allconv17/bias", "op": "Const", "attr": {"value": {"tensor": {"dtype": "DT_FLOAT", "tensorShape": {"dim": [{"size": "3"}]}}}, "dtype": {"type": "DT_FLOAT"}}}, {"name": "inpaint_net/allconv17/kernel", "op": "Const", "attr": {"value": {"tensor": {"dtype": "DT_FLOAT", "tensorShape": {"dim": [{"size": "3"}, {"size": "3"}, {"size": "12"}, {"size": "3"}]}}}, "dtype": {"type": "DT_FLOAT"}}}, {"name": "inpaint_net/conv1/bias", "op": "Const", "attr": {"value": {"tensor": {"dtype": "DT_FLOAT", "tensorShape": {"dim": [{"size": "48"}]}}}, "dtype": {"type": "DT_FLOAT"}}}, {"name": "inpaint_net/conv1/kernel", "op": "Const", "attr": {"value": {"tensor": {"dtype": "DT_FLOAT", "tensorShape": {"dim": [{"size": "5"}, {"size": "5"}, {"size": "5"}, {"size": "48"}]}}}, "dtype": {"type": "DT_FLOAT"}}}, {"name": "inpaint_net/conv10_atrous/bias", "op": "Const", "attr": {"value": {"tensor": {"dtype": "DT_FLOAT", "tensorShape": {"dim": [{"size": "192"}]}}}, "dtype": {"type": "DT_FLOAT"}}}, {"name": "inpaint_net/conv10_atrous/kernel", "op": "Const", "attr": {"value": {"tensor": {"dtype": "DT_FLOAT", "tensorShape": {"dim": [{"size": "3"}, {"size": "3"}, {"size": "96"}, {"size": "192"}]}}}, "dtype": {"type": "DT_FLOAT"}}}, {"name": "inpaint_net/conv11/bias", "op": "Const", "attr": {"value": {"tensor": {"dtype": "DT_FLOAT", "tensorShape": {"dim": [{"size": "192"}]}}}, "dtype": {"type": "DT_FLOAT"}}}, {"name": "inpaint_net/conv11/kernel", "op": "Const", "attr": {"value": {"tensor": {"dtype": "DT_FLOAT", "tensorShape": {"dim": [{"size": "3"}, {"size": "3"}, {"size": "96"}, {"size": "192"}]}}}, "dtype": {"type": "DT_FLOAT"}}}, {"name": "inpaint_net/conv12/bias", "op": "Const", "attr": {"value": {"tensor": {"dtype": "DT_FLOAT", "tensorShape": {"dim": [{"size": "192"}]}}}, "dtype": {"type": "DT_FLOAT"}}}, {"name": "inpaint_net/conv12/kernel", "op": "Const", "attr": {"value": {"tensor": {"dtype": "DT_FLOAT", "tensorShape": {"dim": [{"size": "3"}, {"size": "3"}, {"size": "96"}, {"size": "192"}]}}}, "dtype": {"type": "DT_FLOAT"}}}, {"name": "inpaint_net/conv13_upsample/conv13_upsample_conv/bias", "op": "Const", "attr": {"value": {"tensor": {"dtype": "DT_FLOAT", "tensorShape": {"dim": [{"size": "96"}]}}}, "dtype": {"type": "DT_FLOAT"}}}, {"name": "inpaint_net/conv13_upsample/conv13_upsample_conv/kernel", "op": "Const", "attr": {"value": {"tensor": {"dtype": "DT_FLOAT", "tensorShape": {"dim": [{"size": "3"}, {"size": "3"}, {"size": "96"}, {"size": "96"}]}}}, "dtype": {"type": "DT_FLOAT"}}}, {"name": "inpaint_net/conv14/bias", "op": "Const", "attr": {"value": {"tensor": {"dtype": "DT_FLOAT", "tensorShape": {"dim": [{"size": "96"}]}}}, "dtype": {"type": "DT_FLOAT"}}}, {"name": "inpaint_net/conv14/kernel", "op": "Const", "attr": {"value": {"tensor": {"dtype": "DT_FLOAT", "tensorShape": {"dim": [{"size": "3"}, {"size": "3"}, {"size": "48"}, {"size": "96"}]}}}, "dtype": {"type": "DT_FLOAT"}}}, {"name": "inpaint_net/conv15_upsample/conv15_upsample_conv/bias", "op": "Const", "attr": {"value": {"tensor": {"dtype": "DT_FLOAT", "tensorShape": {"dim": [{"size": "48"}]}}}, "dtype": {"type": "DT_FLOAT"}}}, {"name": "inpaint_net/conv15_upsample/conv15_upsample_conv/kernel", "op": "Const", "attr": {"value": {"tensor": {"dtype": "DT_FLOAT", "tensorShape": {"dim": [{"size": "3"}, {"size": "3"}, {"size": "48"}, {"size": "48"}]}}}, "dtype": {"type": "DT_FLOAT"}}}, {"name": "inpaint_net/conv16/bias", "op": "Const", "attr": {"value": {"tensor": {"dtype": "DT_FLOAT", "tensorShape": {"dim": [{"size": "24"}]}}}, "dtype": {"type": "DT_FLOAT"}}}, {"name": "inpaint_net/conv16/kernel", "op": "Const", "attr": {"value": {"tensor": {"dtype": "DT_FLOAT", "tensorShape": {"dim": [{"size": "3"}, {"size": "3"}, {"size": "24"}, {"size": "24"}]}}}, "dtype": {"type": "DT_FLOAT"}}}, {"name": "inpaint_net/conv17/bias", "op": "Const", "attr": {"dtype": {"type": "DT_FLOAT"}, "value": {"tensor": {"dtype": "DT_FLOAT", "tensorShape": {"dim": [{"size": "3"}]}}}}}, {"name": "inpaint_net/conv17/kernel", "op": "Const", "attr": {"dtype": {"type": "DT_FLOAT"}, "value": {"tensor": {"dtype": "DT_FLOAT", "tensorShape": {"dim": [{"size": "3"}, {"size": "3"}, {"size": "12"}, {"size": "3"}]}}}}}, {"name": "inpaint_net/conv2_downsample/bias", "op": "Const", "attr": {"value": {"tensor": {"dtype": "DT_FLOAT", "tensorShape": {"dim": [{"size": "96"}]}}}, "dtype": {"type": "DT_FLOAT"}}}, {"name": "inpaint_net/conv2_downsample/kernel", "op": "Const", "attr": {"value": {"tensor": {"dtype": "DT_FLOAT", "tensorShape": {"dim": [{"size": "3"}, {"size": "3"}, {"size": "24"}, {"size": "96"}]}}}, "dtype": {"type": "DT_FLOAT"}}}, {"name": "inpaint_net/conv3/bias", "op": "Const", "attr": {"value": {"tensor": {"dtype": "DT_FLOAT", "tensorShape": {"dim": [{"size": "96"}]}}}, "dtype": {"type": "DT_FLOAT"}}}, {"name": "inpaint_net/conv3/kernel", "op": "Const", "attr": {"value": {"tensor": {"dtype": "DT_FLOAT", "tensorShape": {"dim": [{"size": "3"}, {"size": "3"}, {"size": "48"}, {"size": "96"}]}}}, "dtype": {"type": "DT_FLOAT"}}}, {"name": "inpaint_net/conv4_downsample/bias", "op": "Const", "attr": {"value": {"tensor": {"dtype": "DT_FLOAT", "tensorShape": {"dim": [{"size": "192"}]}}}, "dtype": {"type": "DT_FLOAT"}}}, {"name": "inpaint_net/conv4_downsample/kernel", "op": "Const", "attr": {"value": {"tensor": {"dtype": "DT_FLOAT", "tensorShape": {"dim": [{"size": "3"}, {"size": "3"}, {"size": "48"}, {"size": "192"}]}}}, "dtype": {"type": "DT_FLOAT"}}}, {"name": "inpaint_net/conv5/bias", "op": "Const", "attr": {"dtype": {"type": "DT_FLOAT"}, "value": {"tensor": {"dtype": "DT_FLOAT", "tensorShape": {"dim": [{"size": "192"}]}}}}}, {"name": "inpaint_net/conv5/kernel", "op": "Const", "attr": {"value": {"tensor": {"dtype": "DT_FLOAT", "tensorShape": {"dim": [{"size": "3"}, {"size": "3"}, {"size": "96"}, {"size": "192"}]}}}, "dtype": {"type": "DT_FLOAT"}}}, {"name": "inpaint_net/conv6/bias", "op": "Const", "attr": {"value": {"tensor": {"dtype": "DT_FLOAT", "tensorShape": {"dim": [{"size": "192"}]}}}, "dtype": {"type": "DT_FLOAT"}}}, {"name": "inpaint_net/conv6/kernel", "op": "Const", "attr": {"value": {"tensor": {"dtype": "DT_FLOAT", "tensorShape": {"dim": [{"size": "3"}, {"size": "3"}, {"size": "96"}, {"size": "192"}]}}}, "dtype": {"type": "DT_FLOAT"}}}, {"name": "inpaint_net/conv7_atrous/bias", "op": "Const", "attr": {"dtype": {"type": "DT_FLOAT"}, "value": {"tensor": {"dtype": "DT_FLOAT", "tensorShape": {"dim": [{"size": "192"}]}}}}}, {"name": "inpaint_net/conv7_atrous/kernel", "op": "Const", "attr": {"value": {"tensor": {"dtype": "DT_FLOAT", "tensorShape": {"dim": [{"size": "3"}, {"size": "3"}, {"size": "96"}, {"size": "192"}]}}}, "dtype": {"type": "DT_FLOAT"}}}, {"name": "inpaint_net/conv8_atrous/bias", "op": "Const", "attr": {"value": {"tensor": {"dtype": "DT_FLOAT", "tensorShape": {"dim": [{"size": "192"}]}}}, "dtype": {"type": "DT_FLOAT"}}}, {"name": "inpaint_net/conv8_atrous/kernel", "op": "Const", "attr": {"dtype": {"type": "DT_FLOAT"}, "value": {"tensor": {"dtype": "DT_FLOAT", "tensorShape": {"dim": [{"size": "3"}, {"size": "3"}, {"size": "96"}, {"size": "192"}]}}}}}, {"name": "inpaint_net/conv9_atrous/bias", "op": "Const", "attr": {"dtype": {"type": "DT_FLOAT"}, "value": {"tensor": {"dtype": "DT_FLOAT", "tensorShape": {"dim": [{"size": "192"}]}}}}}, {"name": "inpaint_net/conv9_atrous/kernel", "op": "Const", "attr": {"value": {"tensor": {"dtype": "DT_FLOAT", "tensorShape": {"dim": [{"size": "3"}, {"size": "3"}, {"size": "96"}, {"size": "192"}]}}}, "dtype": {"type": "DT_FLOAT"}}}, {"name": "inpaint_net/pmconv1/bias", "op": "Const", "attr": {"value": {"tensor": {"dtype": "DT_FLOAT", "tensorShape": {"dim": [{"size": "48"}]}}}, "dtype": {"type": "DT_FLOAT"}}}, {"name": "inpaint_net/pmconv1/kernel", "op": "Const", "attr": {"value": {"tensor": {"dtype": "DT_FLOAT", "tensorShape": {"dim": [{"size": "5"}, {"size": "5"}, {"size": "3"}, {"size": "48"}]}}}, "dtype": {"type": "DT_FLOAT"}}}, {"name": "inpaint_net/pmconv10/bias", "op": "Const", "attr": {"value": {"tensor": {"dtype": "DT_FLOAT", "tensorShape": {"dim": [{"size": "192"}]}}}, "dtype": {"type": "DT_FLOAT"}}}, {"name": "inpaint_net/pmconv10/kernel", "op": "Const", "attr": {"value": {"tensor": {"dtype": "DT_FLOAT", "tensorShape": {"dim": [{"size": "3"}, {"size": "3"}, {"size": "96"}, {"size": "192"}]}}}, "dtype": {"type": "DT_FLOAT"}}}, {"name": "inpaint_net/pmconv2_downsample/bias", "op": "Const", "attr": {"value": {"tensor": {"dtype": "DT_FLOAT", "tensorShape": {"dim": [{"size": "48"}]}}}, "dtype": {"type": "DT_FLOAT"}}}, {"name": "inpaint_net/pmconv2_downsample/kernel", "op": "Const", "attr": {"value": {"tensor": {"dtype": "DT_FLOAT", "tensorShape": {"dim": [{"size": "3"}, {"size": "3"}, {"size": "24"}, {"size": "48"}]}}}, "dtype": {"type": "DT_FLOAT"}}}, {"name": "inpaint_net/pmconv3/bias", "op": "Const", "attr": {"dtype": {"type": "DT_FLOAT"}, "value": {"tensor": {"dtype": "DT_FLOAT", "tensorShape": {"dim": [{"size": "96"}]}}}}}, {"name": "inpaint_net/pmconv3/kernel", "op": "Const", "attr": {"dtype": {"type": "DT_FLOAT"}, "value": {"tensor": {"dtype": "DT_FLOAT", "tensorShape": {"dim": [{"size": "3"}, {"size": "3"}, {"size": "24"}, {"size": "96"}]}}}}}, {"name": "inpaint_net/pmconv4_downsample/bias", "op": "Const", "attr": {"value": {"tensor": {"dtype": "DT_FLOAT", "tensorShape": {"dim": [{"size": "192"}]}}}, "dtype": {"type": "DT_FLOAT"}}}, {"name": "inpaint_net/pmconv4_downsample/kernel", "op": "Const", "attr": {"dtype": {"type": "DT_FLOAT"}, "value": {"tensor": {"dtype": "DT_FLOAT", "tensorShape": {"dim": [{"size": "3"}, {"size": "3"}, {"size": "48"}, {"size": "192"}]}}}}}, {"name": "inpaint_net/pmconv5/bias", "op": "Const", "attr": {"value": {"tensor": {"dtype": "DT_FLOAT", "tensorShape": {"dim": [{"size": "192"}]}}}, "dtype": {"type": "DT_FLOAT"}}}, {"name": "inpaint_net/pmconv5/kernel", "op": "Const", "attr": {"value": {"tensor": {"dtype": "DT_FLOAT", "tensorShape": {"dim": [{"size": "3"}, {"size": "3"}, {"size": "96"}, {"size": "192"}]}}}, "dtype": {"type": "DT_FLOAT"}}}, {"name": "inpaint_net/pmconv6/bias", "op": "Const", "attr": {"dtype": {"type": "DT_FLOAT"}, "value": {"tensor": {"dtype": "DT_FLOAT", "tensorShape": {"dim": [{"size": "192"}]}}}}}, {"name": "inpaint_net/pmconv6/kernel", "op": "Const", "attr": {"value": {"tensor": {"dtype": "DT_FLOAT", "tensorShape": {"dim": [{"size": "3"}, {"size": "3"}, {"size": "96"}, {"size": "192"}]}}}, "dtype": {"type": "DT_FLOAT"}}}, {"name": "inpaint_net/pmconv9/bias", "op": "Const", "attr": {"value": {"tensor": {"dtype": "DT_FLOAT", "tensorShape": {"dim": [{"size": "192"}]}}}, "dtype": {"type": "DT_FLOAT"}}}, {"name": "inpaint_net/pmconv9/kernel", "op": "Const", "attr": {"value": {"tensor": {"dtype": "DT_FLOAT", "tensorShape": {"dim": [{"size": "3"}, {"size": "3"}, {"size": "96"}, {"size": "192"}]}}}, "dtype": {"type": "DT_FLOAT"}}}, {"name": "inpaint_net/xconv1/bias", "op": "Const", "attr": {"value": {"tensor": {"dtype": "DT_FLOAT", "tensorShape": {"dim": [{"size": "48"}]}}}, "dtype": {"type": "DT_FLOAT"}}}, {"name": "inpaint_net/xconv1/kernel", "op": "Const", "attr": {"value": {"tensor": {"dtype": "DT_FLOAT", "tensorShape": {"dim": [{"size": "5"}, {"size": "5"}, {"size": "3"}, {"size": "48"}]}}}, "dtype": {"type": "DT_FLOAT"}}}, {"name": "inpaint_net/xconv10_atrous/bias", "op": "Const", "attr": {"value": {"tensor": {"dtype": "DT_FLOAT", "tensorShape": {"dim": [{"size": "192"}]}}}, "dtype": {"type": "DT_FLOAT"}}}, {"name": "inpaint_net/xconv10_atrous/kernel", "op": "Const", "attr": {"value": {"tensor": {"dtype": "DT_FLOAT", "tensorShape": {"dim": [{"size": "3"}, {"size": "3"}, {"size": "96"}, {"size": "192"}]}}}, "dtype": {"type": "DT_FLOAT"}}}, {"name": "inpaint_net/xconv2_downsample/bias", "op": "Const", "attr": {"value": {"tensor": {"dtype": "DT_FLOAT", "tensorShape": {"dim": [{"size": "48"}]}}}, "dtype": {"type": "DT_FLOAT"}}}, {"name": "inpaint_net/xconv2_downsample/kernel", "op": "Const", "attr": {"value": {"tensor": {"dtype": "DT_FLOAT", "tensorShape": {"dim": [{"size": "3"}, {"size": "3"}, {"size": "24"}, {"size": "48"}]}}}, "dtype": {"type": "DT_FLOAT"}}}, {"name": "inpaint_net/xconv3/bias", "op": "Const", "attr": {"value": {"tensor": {"dtype": "DT_FLOAT", "tensorShape": {"dim": [{"size": "96"}]}}}, "dtype": {"type": "DT_FLOAT"}}}, {"name": "inpaint_net/xconv3/kernel", "op": "Const", "attr": {"value": {"tensor": {"dtype": "DT_FLOAT", "tensorShape": {"dim": [{"size": "3"}, {"size": "3"}, {"size": "24"}, {"size": "96"}]}}}, "dtype": {"type": "DT_FLOAT"}}}, {"name": "inpaint_net/xconv4_downsample/bias", "op": "Const", "attr": {"value": {"tensor": {"dtype": "DT_FLOAT", "tensorShape": {"dim": [{"size": "96"}]}}}, "dtype": {"type": "DT_FLOAT"}}}, {"name": "inpaint_net/xconv4_downsample/kernel", "op": "Const", "attr": {"value": {"tensor": {"dtype": "DT_FLOAT", "tensorShape": {"dim": [{"size": "3"}, {"size": "3"}, {"size": "48"}, {"size": "96"}]}}}, "dtype": {"type": "DT_FLOAT"}}}, {"name": "inpaint_net/xconv5/bias", "op": "Const", "attr": {"value": {"tensor": {"dtype": "DT_FLOAT", "tensorShape": {"dim": [{"size": "192"}]}}}, "dtype": {"type": "DT_FLOAT"}}}, {"name": "inpaint_net/xconv5/kernel", "op": "Const", "attr": {"value": {"tensor": {"dtype": "DT_FLOAT", "tensorShape": {"dim": [{"size": "3"}, {"size": "3"}, {"size": "48"}, {"size": "192"}]}}}, "dtype": {"type": "DT_FLOAT"}}}, {"name": "inpaint_net/xconv6/bias", "op": "Const", "attr": {"value": {"tensor": {"dtype": "DT_FLOAT", "tensorShape": {"dim": [{"size": "192"}]}}}, "dtype": {"type": "DT_FLOAT"}}}, {"name": "inpaint_net/xconv6/kernel", "op": "Const", "attr": {"value": {"tensor": {"dtype": "DT_FLOAT", "tensorShape": {"dim": [{"size": "3"}, {"size": "3"}, {"size": "96"}, {"size": "192"}]}}}, "dtype": {"type": "DT_FLOAT"}}}, {"name": "inpaint_net/xconv7_atrous/bias", "op": "Const", "attr": {"dtype": {"type": "DT_FLOAT"}, "value": {"tensor": {"dtype": "DT_FLOAT", "tensorShape": {"dim": [{"size": "192"}]}}}}}, {"name": "inpaint_net/xconv7_atrous/kernel", "op": "Const", "attr": {"value": {"tensor": {"dtype": "DT_FLOAT", "tensorShape": {"dim": [{"size": "3"}, {"size": "3"}, {"size": "96"}, {"size": "192"}]}}}, "dtype": {"type": "DT_FLOAT"}}}, {"name": "inpaint_net/xconv8_atrous/bias", "op": "Const", "attr": {"value": {"tensor": {"dtype": "DT_FLOAT", "tensorShape": {"dim": [{"size": "192"}]}}}, "dtype": {"type": "DT_FLOAT"}}}, {"name": "inpaint_net/xconv8_atrous/kernel", "op": "Const", "attr": {"value": {"tensor": {"dtype": "DT_FLOAT", "tensorShape": {"dim": [{"size": "3"}, {"size": "3"}, {"size": "96"}, {"size": "192"}]}}}, "dtype": {"type": "DT_FLOAT"}}}, {"name": "inpaint_net/xconv9_atrous/bias", "op": "Const", "attr": {"value": {"tensor": {"dtype": "DT_FLOAT", "tensorShape": {"dim": [{"size": "192"}]}}}, "dtype": {"type": "DT_FLOAT"}}}, {"name": "inpaint_net/xconv9_atrous/kernel", "op": "Const", "attr": {"dtype": {"type": "DT_FLOAT"}, "value": {"tensor": {"dtype": "DT_FLOAT", "tensorShape": {"dim": [{"size": "3"}, {"size": "3"}, {"size": "96"}, {"size": "192"}]}}}}}], "library": {}, "versions": {}}, "weightsManifest": [{"paths": ["group1-shard1of4.bin", "group1-shard2of4.bin", "group1-shard3of4.bin", "group1-shard4of4.bin"], "weights": [{"name": "inpaint_net/allconv11/bias", "shape": [192], "dtype": "float32"}, {"name": "inpaint_net/allconv11/kernel", "shape": [3, 3, 192, 192], "dtype": "float32"}, {"name": "inpaint_net/allconv12/bias", "shape": [192], "dtype": "float32"}, {"name": "inpaint_net/allconv12/kernel", "shape": [3, 3, 96, 192], "dtype": "float32"}, {"name": "inpaint_net/allconv13_upsample/allconv13_upsample_conv/bias", "shape": [96], "dtype": "float32"}, {"name": "inpaint_net/allconv13_upsample/allconv13_upsample_conv/kernel", "shape": [3, 3, 96, 96], "dtype": "float32"}, {"name": "inpaint_net/allconv14/bias", "shape": [96], "dtype": "float32"}, {"name": "inpaint_net/allconv14/kernel", "shape": [3, 3, 48, 96], "dtype": "float32"}, {"name": "inpaint_net/allconv15_upsample/allconv15_upsample_conv/bias", "shape": [48], "dtype": "float32"}, {"name": "inpaint_net/allconv15_upsample/allconv15_upsample_conv/kernel", "shape": [3, 3, 48, 48], "dtype": "float32"}, {"name": "inpaint_net/allconv16/bias", "shape": [24], "dtype": "float32"}, {"name": "inpaint_net/allconv16/kernel", "shape": [3, 3, 24, 24], "dtype": "float32"}, {"name": "inpaint_net/allconv17/bias", "shape": [3], "dtype": "float32"}, {"name": "inpaint_net/allconv17/kernel", "shape": [3, 3, 12, 3], "dtype": "float32"}, {"name": "inpaint_net/conv1/bias", "shape": [48], "dtype": "float32"}, {"name": "inpaint_net/conv1/kernel", "shape": [5, 5, 5, 48], "dtype": "float32"}, {"name": "inpaint_net/conv10_atrous/bias", "shape": [192], "dtype": "float32"}, {"name": "inpaint_net/conv10_atrous/kernel", "shape": [3, 3, 96, 192], "dtype": "float32"}, {"name": "inpaint_net/conv11/bias", "shape": [192], "dtype": "float32"}, {"name": "inpaint_net/conv11/kernel", "shape": [3, 3, 96, 192], "dtype": "float32"}, {"name": "inpaint_net/conv12/bias", "shape": [192], "dtype": "float32"}, {"name": "inpaint_net/conv12/kernel", "shape": [3, 3, 96, 192], "dtype": "float32"}, {"name": "inpaint_net/conv13_upsample/conv13_upsample_conv/bias", "shape": [96], "dtype": "float32"}, {"name": "inpaint_net/conv13_upsample/conv13_upsample_conv/kernel", "shape": [3, 3, 96, 96], "dtype": "float32"}, {"name": "inpaint_net/conv14/bias", "shape": [96], "dtype": "float32"}, {"name": "inpaint_net/conv14/kernel", "shape": [3, 3, 48, 96], "dtype": "float32"}, {"name": "inpaint_net/conv15_upsample/conv15_upsample_conv/bias", "shape": [48], "dtype": "float32"}, {"name": "inpaint_net/conv15_upsample/conv15_upsample_conv/kernel", "shape": [3, 3, 48, 48], "dtype": "float32"}, {"name": "inpaint_net/conv16/bias", "shape": [24], "dtype": "float32"}, {"name": "inpaint_net/conv16/kernel", "shape": [3, 3, 24, 24], "dtype": "float32"}, {"name": "inpaint_net/conv17/bias", "shape": [3], "dtype": "float32"}, {"name": "inpaint_net/conv17/kernel", "shape": [3, 3, 12, 3], "dtype": "float32"}, {"name": "inpaint_net/conv2_downsample/bias", "shape": [96], "dtype": "float32"}, {"name": "inpaint_net/conv2_downsample/kernel", "shape": [3, 3, 24, 96], "dtype": "float32"}, {"name": "inpaint_net/conv3/bias", "shape": [96], "dtype": "float32"}, {"name": "inpaint_net/conv3/kernel", "shape": [3, 3, 48, 96], "dtype": "float32"}, {"name": "inpaint_net/conv4_downsample/bias", "shape": [192], "dtype": "float32"}, {"name": "inpaint_net/conv4_downsample/kernel", "shape": [3, 3, 48, 192], "dtype": "float32"}, {"name": "inpaint_net/conv5/bias", "shape": [192], "dtype": "float32"}, {"name": "inpaint_net/conv5/kernel", "shape": [3, 3, 96, 192], "dtype": "float32"}, {"name": "inpaint_net/conv6/bias", "shape": [192], "dtype": "float32"}, {"name": "inpaint_net/conv6/kernel", "shape": [3, 3, 96, 192], "dtype": "float32"}, {"name": "inpaint_net/conv7_atrous/bias", "shape": [192], "dtype": "float32"}, {"name": "inpaint_net/conv7_atrous/kernel", "shape": [3, 3, 96, 192], "dtype": "float32"}, {"name": "inpaint_net/conv8_atrous/bias", "shape": [192], "dtype": "float32"}, {"name": "inpaint_net/conv8_atrous/kernel", "shape": [3, 3, 96, 192], "dtype": "float32"}, {"name": "inpaint_net/conv9_atrous/bias", "shape": [192], "dtype": "float32"}, {"name": "inpaint_net/conv9_atrous/kernel", "shape": [3, 3, 96, 192], "dtype": "float32"}, {"name": "inpaint_net/pmconv1/bias", "shape": [48], "dtype": "float32"}, {"name": "inpaint_net/pmconv1/kernel", "shape": [5, 5, 3, 48], "dtype": "float32"}, {"name": "inpaint_net/pmconv10/bias", "shape": [192], "dtype": "float32"}, {"name": "inpaint_net/pmconv10/kernel", "shape": [3, 3, 96, 192], "dtype": "float32"}, {"name": "inpaint_net/pmconv2_downsample/bias", "shape": [48], "dtype": "float32"}, {"name": "inpaint_net/pmconv2_downsample/kernel", "shape": [3, 3, 24, 48], "dtype": "float32"}, {"name": "inpaint_net/pmconv3/bias", "shape": [96], "dtype": "float32"}, {"name": "inpaint_net/pmconv3/kernel", "shape": [3, 3, 24, 96], "dtype": "float32"}, {"name": "inpaint_net/pmconv4_downsample/bias", "shape": [192], "dtype": "float32"}, {"name": "inpaint_net/pmconv4_downsample/kernel", "shape": [3, 3, 48, 192], "dtype": "float32"}, {"name": "inpaint_net/pmconv5/bias", "shape": [192], "dtype": "float32"}, {"name": "inpaint_net/pmconv5/kernel", "shape": [3, 3, 96, 192], "dtype": "float32"}, {"name": "inpaint_net/pmconv6/bias", "shape": [192], "dtype": "float32"}, {"name": "inpaint_net/pmconv6/kernel", "shape": [3, 3, 96, 192], "dtype": "float32"}, {"name": "inpaint_net/pmconv9/bias", "shape": [192], "dtype": "float32"}, {"name": "inpaint_net/pmconv9/kernel", "shape": [3, 3, 96, 192], "dtype": "float32"}, {"name": "inpaint_net/xconv1/bias", "shape": [48], "dtype": "float32"}, {"name": "inpaint_net/xconv1/kernel", "shape": [5, 5, 3, 48], "dtype": "float32"}, {"name": "inpaint_net/xconv10_atrous/bias", "shape": [192], "dtype": "float32"}, {"name": "inpaint_net/xconv10_atrous/kernel", "shape": [3, 3, 96, 192], "dtype": "float32"}, {"name": "inpaint_net/xconv2_downsample/bias", "shape": [48], "dtype": "float32"}, {"name": "inpaint_net/xconv2_downsample/kernel", "shape": [3, 3, 24, 48], "dtype": "float32"}, {"name": "inpaint_net/xconv3/bias", "shape": [96], "dtype": "float32"}, {"name": "inpaint_net/xconv3/kernel", "shape": [3, 3, 24, 96], "dtype": "float32"}, {"name": "inpaint_net/xconv4_downsample/bias", "shape": [96], "dtype": "float32"}, {"name": "inpaint_net/xconv4_downsample/kernel", "shape": [3, 3, 48, 96], "dtype": "float32"}, {"name": "inpaint_net/xconv5/bias", "shape": [192], "dtype": "float32"}, {"name": "inpaint_net/xconv5/kernel", "shape": [3, 3, 48, 192], "dtype": "float32"}, {"name": "inpaint_net/xconv6/bias", "shape": [192], "dtype": "float32"}, {"name": "inpaint_net/xconv6/kernel", "shape": [3, 3, 96, 192], "dtype": "float32"}, {"name": "inpaint_net/xconv7_atrous/bias", "shape": [192], "dtype": "float32"}, {"name": "inpaint_net/xconv7_atrous/kernel", "shape": [3, 3, 96, 192], "dtype": "float32"}, {"name": "inpaint_net/xconv8_atrous/bias", "shape": [192], "dtype": "float32"}, {"name": "inpaint_net/xconv8_atrous/kernel", "shape": [3, 3, 96, 192], "dtype": "float32"}, {"name": "inpaint_net/xconv9_atrous/bias", "shape": [192], "dtype": "float32"}, {"name": "inpaint_net/xconv9_atrous/kernel", "shape": [3, 3, 96, 192], "dtype": "float32"}]}]}